…
0fc\u30af\u306e\u30ec\u30a4\u30e4\u756a\u53f7\u3067\u3059\u304c\u3001darknet\u306f\u5b66\u7fd2\u5b9f\u884c\u6642\u306a\u3069\u306b\u30ec\u30a4\u30e4\u756a\u53f7\u3068\u753b\u50cf\u30b5\u30a4\u30ba\u3092\u4e0b\u8a18\u306e\u3088\u3046\u306b\u8868\u793a\u3057\u307e\u3059\u306e\u3067\u3001\u3053\u308c\u3092\u53c2\u8003\u306b\u5207\u308a\u307e\u3059\u3002\u3053\u306e\u5834\u5408\u306fnum\u304b\u3089\u5148\u3092\u5207\u308a\u843d\u3068\u3057\u305f\u91cd\u307f\u4fc2\u6570\u304ctarget.weight\u306b\u5165\u308a\u307e\u3059\u3002\nlayer     filters    size              input                output\n    0 conv     16  3 x 3 / 1   416 x 416 x   3   ->   416 x 416 x  16\n    1 max          2 x 2 / 2   416 x 416 x  16   ->   208 x 208 x  16\n    2 conv     32  3 x 3 / 1   208 x 208 x  16   ->   208 x 208 x  32\n...\n   12 conv    512  3 x 3 / 1    13 x  13 x 256   ->    13 x  13 x 512\n   13 conv    512  3 x 3 / 1    13 x  13 x 512   ->    13 x  13 x 512\n   14 conv     35  1 x 1 / 1    13 x  13 x 512   ->    13 x  13 x  35\n   15 detection\n\n\u4eca\u56de\u306e\u5834\u5408\u306f13\u3092\u6307\u5b9a\u3057\u3066\u307f\u307e\u3059\u3002\n\n\u672c\u756a\u5b66\u7fd2\ndarknet detector train cfg/ppap.dataset cfg/tiny-yolo-ppap.cfg pretrain.weights\n\n\u306e\u3088\u3046\u306b\u3057\u3066\u5b66\u7fd2\u3057\u307e\u3059\u3002\u5148\u7a0b\u4e8b\u524d\u5b66\u7fd2\u3057\u3066\u304b\u3089\
…
af\u306e\u30ec\u30a4\u30e4\u756a\u53f7\u3067\u3059\u304c\u3001darknet\u306f\u5b66\u7fd2\u5b9f\u884c\u6642\u306a\u3069\u306b\u30ec\u30a4\u30e4\u756a\u53f7\u3068\u753b\u50cf\u30b5\u30a4\u30ba\u3092\u4e0b\u8a18\u306e\u3088\u3046\u306b\u8868\u793a\u3057\u307e\u3059\u306e\u3067\u3001\u3053\u308c\u3092\u53c2\u8003\u306b\u5207\u308a\u307e\u3059\u3002\u3053\u306e\u5834\u5408\u306fnum\u304b\u3089\u5148\u3092\u5207\u308a\u843d\u3068\u3057\u305f\u91cd\u307f\u4fc2\u6570\u304ctarget.weight\u306b\u5165\u308a\u307e\u3059\u3002\n\n```\nlayer     filters    size              input                output\n    0 conv     16  3 x 3 / 1   416 x 416 x   3   ->   416 x 416 x  16\n    1 max          2 x 2 / 2   416 x 416 x  16   ->   208 x 208 x  16\n    2 conv     32  3 x 3 / 1   208 x 208 x  16   ->   208 x 208 x  32\n...\n   12 conv    512  3 x 3 / 1    13 x  13 x 256   ->    13 x  13 x 512\n   13 conv    512  3 x 3 / 1    13 x  13 x 512   ->    13 x  13 x 512\n   14 conv     35  1 x 1 / 1    13 x  13 x 512   ->    13 x  13 x  35\n   15 detection\n```\n\n\u4eca\u56de\u306e\u5834\u5408\u306f13\u3092\u6307\u5b9a\u3057\u3066\u307f\u307e\u3059\u3002\n\n# \u672c\u756a\u5b66\u7fd2\n\n```\ndarknet detector train cfg/ppap.dataset cfg/tiny-yolo-ppap.cfg pretrain.weights\n```\n\u306e\u3088\u3046\u306b\u3057\u3066\u5b66\u7fd2\u3057\u307e\u3059\u3002\u5148\u7a0b\u4e8b\u524d\u5b66\u7fd2\u3057\u
…
