…
\n\u30cd\u30c3\u30c8\u30ef\u30fc\u30af\u306f\u4ee5\u4e0b\u306e\u3088\u3046\u306a\u69cb\u6210\u306b\u3057\u3066\u3044\u307e\u3059\u3002Keras\u3060\u3068\u69cb\u6210\u3092\u7c21\u5358\u306b\u51fa\u529b\u3067\u304d\u308b\u306e\u3067\u4fbf\u5229\u3067\u3059\u3002\n____________________________________________________________________________________________________\nLayer (type)                     Output Shape          Param #     Connected to                     \n====================================================================================================\nconvolution2d_1 (Convolution2D)  (None, 32, 64, 64)    896         convolution2d_input_1[0][0]      \n____________________________________________________________________________________________________\nactivation_1 (Activation)        (None, 32, 64, 64)    0           convolution2d_1[0][0]            \n____________________________________________________________________________________________________\nconvolution2d_2 (Convolution2D)  (None, 32, 62, 62)    9248        activation_1[0][0]               \n____________________________________________________________________________________________________\nactivation_2 (Activation)        (None, 32, 62, 62)    0           convolution2d_2[0][0]            \n____________________________________________________________________________________________________\nmaxpooling2d_1 (MaxPooling2D)    (None, 32, 31, 31)    0           activation_2[0][0]               \n____________________________________________________________________________________________________\ndropout_1 (Dropout)              (None, 32, 31, 31)    0           maxpooling2d_1[0][0]             \n____________________________________________________________________________________________________\nconvolution2d_3 (Convolution2D)  (None, 64, 31, 31)    18496       dropout_1[0][0]                  \n____________________________________________________________________________________________________\nactivation_3 (Activation)        (None, 64, 31, 31)    0           convolution2d_3[0][0]            \n____________________________________________________________________________________________________\nconvolution2d_4 (Convolution2D)  (None, 64, 29, 29)    36928       activation_3[0][0]               \n____________________________________________________________________________________________________\nactivation_4 (Activation)        (None, 64, 29, 29)    0           convolution2d_4[0][0]            \n____________________________________________________________________________________________________\nmaxpooling2d_2 (MaxPooling2D)    (None, 64, 14, 14)    0           activation_4[0][0]               \n____________________________________________________________________________________________________\ndropout_2 (Dropout)              (None, 64, 14, 14)    0           maxpooling2d_2[0][0]             \n____________________________________________________________________________________________________\nflatten_1 (Flatten)              (None, 12544)         0           dropout_2[0][0]                  \n____________________________________________________________________________________________________\ndense_1 (Dense)                  (None, 512)           6423040     flatten_1[0][0]                  \n____________________________________________________________________________________________________\nactivation_5 (Activation)        (None, 512)           0           dense_1[0][0]                    \n____________________________________________________________________________________________________\ndropout_3 (Dropout)              (None, 512)           0           activation_5[0][0]               \n____________________________________________________________________________________________________\ndense_2 (Dense)                  (None, 2)             1026        dropout_3[0][0]                  \n____________________________________________________________________________________________________\nactivation_6 (Activation)        (None, 2)             0           dense_2[0][0]                    \n====================================================================================================\nTotal params: 6489634\n\n\u305d\u306e\u30b3\u30fc\u30c9\u304c\u3053\u3061\u3089:\n\nBossSensor/boss_train.py\n\n\u3053\u3053\u307e\u3067\u3067\u304d\u308b\u3068\u30ab\u30e1\u30e9\u306b\u30dc\u30b9\u304c\u6620\u3063\u305f\u6642\u306b\u30dc\u30b9\u3060\u
…
